depression_model.pt (torch, 3969 bytes, 5 tensors)

model.0.weight f4 [16, 3]
00000000: 4eb6 aabe bb90 d93e b4ea 473e 748e 0a3f
00000010: 0dae 423d 5c45 a0be e588 243e 8a2b e4be
00000020: dcc2 c3bd 2cc8 a13c 1edc e7be 424b cd3c
00000030: 97ae 7f3c 3f52 3e3e 7a6b e1be 9a7b b13e
00000040: 18b5 c1be b313 ba3e 3e9d 14bf 27e4 013f
00000050: cdcd 483e 1f7f e13d c630 6fbe 9a47 5abe
00000060: 6a12 073f 6f9a c03d 5a74 0d3e 9e95 b0bd
00000070: 2668 e23d a6b1 9d3e a4b4 4ebe 274d 043f
00000080: dff3 97be 23d5 1b3e 8e1e 53be 88fe a1bd
00000090: 6418 1dbd ec38 fabe 04a1 133f f9c6 c2be
000000a0: 6bf0 ebbe 5ea3 d7be a275 be3d 5dfa 87be
000000b0: 20a5 c53e 32f1 953e dd87 bdbd c522 f93e
-0.33342212 0.42493233 0.19523126 0.54123616 0.04752927 -0.31302917 0.16067846 -0.44564468
-0.09558651 0.01974877 -0.45285124 0.0250603 0.01560559 0.18586062 -0.4402731 0.34664613
-0.37833476 0.36343154 -0.5805243 0.5073876 0.19609757 0.110105745 -0.2335845 -0.21316376
0.5276247 0.09404456 0.13813916 -0.08622287 0.11055021 0.30799598 -0.20186096 0.51680225
-0.29678246 0.15218024 -0.20617124 -0.07909876 -0.03835334 -0.48871553 0.57667565 -0.3804243
-0.46081862 -0.42116827 0.092997804 -0.265582 0.38602543 0.2928558 -0.092544295 0.4865934

model.0.bias f4 [16]
00000000: 2c52 983b 5603 a7bc 5ac6 b33c 704d bcbc
00000010: 389d e13c 4fae c93c 53f0 cfbc c08c 47bb
00000020: 573e de3c e07e b6bc b403 c53c 85a6 c83c
00000030: e89a ca3c d067 b1bc 68ce a9bc c382 cabc
0.0046484675 -0.020387333 0.021945167 -0.022986144 0.027540788 0.02461925 -0.02538315 -0.0030448884
0.027129335 -0.022277296 0.024049617 0.024493465 0.024732068 -0.021655947 -0.020728305 -0.024720555

model.2.weight f4 [8, 16]
00000000: 502e 56bb 778d 1cbe 3975 b4be 35db 4ebe
00000010: 91cd 88be 92af adbe 89b6 123e 7dad 32be
00000020: ded5 953e d38f 823e 78db d13e 4bbd 48be
00000030: 0e7a 54be bb9f 15bc c8dd 383e 596d 093e
00000040: 9826 fcbe bb83 833e b4a5 5f3d 7f5a 00be
00000050: 0313 16bd 7f67 01bf 6b4f fd3d ffb4 493e
00000060: dbc9 2dbe f50c 873e 2075 e93d 7a5a 963e
00000070: 56d1 c7be 0ac7 c03e 0098 2fbc 5d36 893e
00000080: 03e2 8e3e 08e0 bbbe 493b 8c3e a4fa 64be
00000090: 920f 8c3e 1587 b5bc 0772 c03e 10ff b43e
000000a0: ca77 0abe 22d2 1bbe 6cdd 81be b607 c33e
000000b0: adba 6abe ba9a 903d dcbd 673d 5fb3 473d
000000c0: 71a1 94be 3f84 863d 6a65 acbe 9f47 c8be
000000d0: 68d9 bfbd d360 c1bd 9860 9ebe 744c afbe
000000e0: 2f7f 8c3e 6a97 b2bd f43b c2be 4dbe 4d3e
000000f0: 68ad 3f3d 1888 dbbd ede6 5a3e cd0a b3be
00000100: 4a52 27be 9f55 1dbd 0600 eebe 5562 5fbd
00000110: 306e 2c3e 817c 643e 3f7f a73d c536 113e
00000120: 5a80 143e 8840 63bd dfd8 21be 0251 e7be
00000130: 12af 4b3c 680e 683e 01d0 753e 5ee3 fdbe
00000140: c6ad 15be d57a c23e 2da1 f2be 512f 78be
00000150: 65ea 44be 5acd 043f 85b3 a7be 5f90 eebe
00000160: fe0d 61bd 4be8 cabd c41c 61be 62e5 173e
00000170: 5456 cb3e a4e0 a83e c3dd 36bc 2ef0 193e
00000180: 7a1a fdbe fa22 ce3e 38a6 85be 4c6d de3e
00000190: e51b 01bf 0840 51be 44ca 80be 9aa0 febe
000001a0: b94f ebbe f39b a93e bc2a 8d3e e290 bd3e
000001b0: c01a 8ebd 2662 e7be 9e0e d4be f17e ef3e
000001c0: 3010 ea3e 4339 84be f07e ce3e f5e8 73be
000001d0: c46b bc3e e0e9 633d afb7 f9be a0bc ba3e
000001e0: 563e f23e 0e3b bc3d 7669 983e d7f8 ce3e
000001f0: 9f81 93bd 9739 47bd d4b2 05bc bfaa 49be
-0.0032681413 -0.1528834 -0.35245684 -0.20200808 -0.26719335 -0.33923012 0.14327444 -0.17448993
0.2926473 0.25500354 0.40987754 -0.1960346 -0.20749685 -0.009132321 0.18053353 0.13420619
-0.49248195 0.2568644 0.054601386 -0.12534522 -0.036639225 -0.5054855 0.123686634 0.19697951
-0.16971533 0.26377073 0.11399293 0.29365903 -0.39026898 0.37651855 -0.010717392 0.26799288
0.27906808 -0.3669436 0.2738898 -0.22361237 0.2735563 -0.022159139 0.37586996 0.35350847
-0.13522258 -0.15216878 -0.25364244 0.3809182 -0.22922774 0.07060762 0.05657755 0.048755046
-0.2902942 0.06568193 -0.33671123 -0.39117143 -0.09367639 -0.09442296 -0.3093307 -0.34238017
0.27440783 -0.08720286 -0.37936366 0.20092125 0.046796232 -0.10719317 0.21377154 -0.34969178
-0.16339985 -0.038411733 -0.46484393 -0.054537136 0.16838908 0.2231312 0.08178567 0.14181049
0.14502087 -0.055481464 -0.15805386 -0.45178992 0.012431877 0.22661746 0.24005128 -0.4958753
-0.1461707 0.37984338 -0.47388592 -0.242368 -0.1923004 0.5187584 -0.3275415 -0.4659452
-0.054944985 -0.099075876 -0.2198363 0.14833596 0.397143 0.32983887 -0.011161271 0.15033028
-0.49434263 0.4026106 -0.26103377 0.43442762 -0.5043319 -0.20434582 -0.25154316 -0.49731904
-0.4595926 0.33126792 0.27571666 0.370246 -0.06938696 -0.4519207 -0.41417402 0.46776536
0.45715475 -0.25824937 0.4033122 -0.23819335 0.3680097 0.055642962 -0.48772952 0.36472034
0.47313184 0.09190951 0.2976796 0.40424225 -0.07202458 -0.048638906 -0.008160312 -0.1969404

model.2.bias f4 [8]
00000000: 4a37 b9bc c554 bcbc 9e89 ca3c 0c00 b43c
00000010: a9c7 acbc 0555 ca3c afa2 67bc c54b cd3c
-0.022609372 -0.02298964 0.024723824 0.021972679 -0.0210913 0.024698744 -0.014137908 0.025060544

model.4.weight f4 [1, 8]
00000000: 36c8 d13e 7b70 b93d 420e a6bc 6b17 fcbe
00000010: f69c 113f ab47 48bf 1196 eb3e c55f 12bf
0.4097306 0.09054657 -0.02027047 -0.49236616 0.5688013 -0.78234357 0.4601293 -0.5717738
